…
  (conv3): Conv2d(512, 2048, kernel_size=(1, 1), stride=(1, 1), bias=False)
  (bn3): BatchNorm2d(2048, eps=1e-05, momentum=0.1, affine=True, track_running_stats=True)
  (relu): ReLU(inplace=True)
  (downsample): Sequential(
    (0): Conv2d(1024, 2048, kernel_size=(1, 1), stride=(2, 2), bias=False)
    (1): BatchNorm2d(2048, eps=1e-05, momentum=0.1, affine=True, track_running_stats=True)
  )
)]
2048
_________________________________________________________________
Layer        Type                 Output Shape          Param #  
=================================================================
resnet       ResNet               (-1, 2)               0        
├─conv1      Conv2d               (-1, 64, 112, 112)    9,408    
├─bn1        BatchNorm2d          (-1, 64, 112, 112)    257      
├─relu       ReLU                 (-1, 64, 112, 112)    0        
├─maxpool    MaxPool2d            (-1, 64, 56, 56)      0        
├─layer1     Sequential           (-1, 256, 56, 56)     0        
|    └─0     Bottleneck           (-1, 256, 56, 56)     76,292   
|    └─1     Bottleneck           (-1, 256, 56, 56)     71,171   
|    └─2     Bottleneck           (-1, 256, 56, 56)     71,171   
├─layer2     Sequential           (-1, 512, 28, 28)     0        
|    └─0     Bottleneck           (-1, 512, 28, 28)     381,956  
|    └─1     Bottleneck           (-1, 512, 28, 28)     281,603  
|    └─2     Bottleneck           (-1, 512, 28, 28)     281,603  
├─layer3     Sequential           (-1, 1024, 14, 14)    0        
|    └─0     Bottleneck           (-1, 1024, 14, 14)    1,517,572
|    └─1     Bottleneck           (-1, 1024, 14, 14)    1,120,259
|    └─2     Bottleneck           (-1, 1024, 14, 14)    1,120,259
|    └─3     Bottleneck           (-1, 1024, 14, 14)    1,120,259
|    └─4     Bottleneck           (-1, 1024, 14, 14)    1,120,259
|    └─5     Bottleneck           (-1, 1024, 14, 14)    1,120,259
|    └─6     Bottleneck           (-1, 1024, 14, 14)    1,120,259
|    └─7     Bottleneck           (-1, 1024, 14, 14)    1,120,259
|    └─8     Bottleneck           (-1, 1024, 14, 14)    1,120,259
├─layer4     Sequential           (-1, 2048, 7, 7)      0        
|    └─0     Bottleneck           (-1, 2048, 7, 7)      6,049,796
|    └─1     Bottleneck           (-1, 2048, 7, 7)      4,468,739
|    └─2     Bottleneck           (-1, 2048, 7, 7)      4,468,739
├─avgpool    AdaptiveAvgPool2d    (-1, 2048, 1, 1)      0        
├─fc         Linear               (-1, 2)               4,098    
=================================================================
Trainable params: 26,583,618
Non-trainable params: 0
Total params: 26,583,618
-----------------------------------------------------------------
Model size (params + buffers): 101.64 Mb
Framework & CUDA overhead: 469.00 Mb
Total RAM usage: 570.64 Mb
-----------------------------------------------------------------
Floating Point Operations on forward: 9.13 GFLOPs
…
